app/src/main/ml/converted_model.tflite (tflite, 611280 bytes, 6 tensors)

sequential_13/dense_41/BiasAdd/ReadVariableOp f4 [2200]
000000 ca 92 10 3b 79 5f 44 bc 11 52 7a bd bd 7c 0a 3d
       0.002206015 -0.011985653 -0.06111342 0.033810366
000010 f5 74 7e 3b f8 26 a7 3c 28 00 d1 bd 0e c3 1a 3c
       0.0038827036 0.020404324 -0.10205108 0.009445919
000020 12 88 e1 3c a2 9f 80 3d 63 bd bd 3c 5b be 1f 3e
       0.027530704 0.062804475 0.023161596 0.15599959
000030 89 df e0 3d 79 e1 2f 3e 0f 31 eb bc cc 75 9b 3b
       0.10980136 0.17175855 -0.028709916 0.004744267
000040 f8 1a 9b 3c a6 55 e9 bd 15 74 f9 bc 04 78 d3 3c
       0.018933758 -0.11393289 -0.03045086 0.025814064
000050 a8 9f 4f bd 07 53 37 3c 16 b9 d2 bc 59 88 de bc
       -0.05068937 0.011189229 -0.025723021 -0.027164625
000060 96 79 d3 bc 67 f9 b8 bc 11 27 d1 bc 95 22 d9 bc
       -0.025814813 -0.022579862 -0.025531324 -0.026505748
000070 10 b6 cf bc 36 c5 cc bc 5e fc d0 bc 10 cc ac bc
       -0.025355369 -0.024996381 -0.025510963 -0.021093398
000080 6f f1 e3 bc 5d 66 e2 bc a0 51 be bc d3 8d b0 bc
       -0.027825085 -0.027636701 -0.023232281 -0.021552002
000090 cc 5a e3 bc 7c f0 bb bc e1 e0 d5 bc 86 90 d8 bc
       -0.027753256 -0.02294182 -0.026108207 -0.026436102
0000a0 f2 72 d6 bc 6f 3c d8 bc e7 0d d5 bc 53 bc bf bc
       -0.026177857 -0.026396004 -0.026007606 -0.02340523
0000b0 da 86 c1 bc 86 81 ce bc d0 24 c8 bc bc bc b5 bc
       -0.023623873 -0.025208246 -0.024431616 -0.022184722
0000c0 e1 10 ca bc b3 a4 c2 bc 30 16 f8 bc 71 35 ce bc
       -0.024666252 -0.023760175 -0.030284017 -0.025171967
0000d0 c2 47 9b bc ff 00 da bc 71 68 df bc 2e 6d ab bc
       -0.018955115 -0.026611803 -0.027271481 -0.020926084
0000e0 c8 e5 ce bc f9 12 d9 bc 60 ca d0 bc fc ef c9 bc
       -0.025256053 -0.026498305 -0.025487125 -0.024650566
0000f0 c5 6a d7 bc fd 2a a7 bc 79 09 d0 bc 5f f5 e7 bc
       -0.026296029 -0.02040624 -0.025395142 -0.028315244
000100 5a b2 d6 bc 5d 67 c0 bc ff c9 cf bc e3 0e c8 bc
       -0.026208092 -0.023486787 -0.025364874 -0.024421161
000110 0d 3f d1 bc 20 a0 d7 bc 16 d0 c7 bc a6 a0 c6 bc
       -0.02554276 -0.02632147 -0.024391215 -0.024246525
000120 48 fa cf bc 11 b1 c8 bc f7 36 c2 bc d4 62 b2 bc
       -0.025387898 -0.024498494 -0.02370785 -0.02177564
000130 a7 54 bd bc 8b 4f b2 bc db fe c1 bc 11 83 d8 bc
       -0.023111654 -0.021766445 -0.023681095 -0.026429685
000140 e4 28 d0 bc 0a 05 bb bc ac 2d a8 bc c0 05 ac bc
       -0.025410123 -0.022829551 -0.02052959 -0.020998836
000150 0a 58 c2 bc 78 af ab bc e3 c0 b6 bc ae cb d2 bc
       -0.02372362 -0.020957693 -0.022308772 -0.025731888
000160 05 6b bb bc 39 8c d7 bc 90 c6 cb bc 6e fd dc bc
       -0.02287818 -0.02631198 -0.024874955 -0.026976313
000170 01 af d8 bc 32 85 d4 bc e0 4e bf bc ba 42 cc bc
       -0.026450636 -0.025942419 -0.02335304 -0.024934161
000180 ef 76 cf bc 16 08 dc bc 17 59 bc bc b8 49 c6 bc
       -0.025325267 -0.026859324 -0.0229917 -0.024205074
000190 79 62 d6 bc dc 30 c8 bc ee 86 e3 bc 78 4e d0 bc
       -0.026170002 -0.02443736 -0.0277743 -0.025428042
0001a0 e6 ef cc bc 32 60 c5 bc 97 c7 b6 bc df 11 e3 bc
       -0.025016736 -0.024093721 -0.022311969 -0.027718483
0001b0 04 24 b8 bc 11 ff ac bc f6 13 c0 bc 59 d6 ca bc
       -0.022478111 -0.021117719 -0.023447018 -0.024760412
0001c0 77 95 b0 bc d8 74 b8 bc 50 83 c4 bc c7 b3 c3 bc
       -0.021555645 -0.022516653 -0.023988396 -0.023889435
0001d0 ad ac cd bc 25 95 c5 bc 3d 26 c5 bc 51 be ce bc
       -0.025106752 -0.02411897 -0.024066085 -0.025237234
0001e0 db 9b de bc cd 9f d6 bc 59 cb cf bc 89 33 dc bc
       -0.027173927 -0.026199246 -0.025365518 -0.026880043
0001f0 5c 80 8b bc bf 36 db bc f0 5b c1 bc df 75 d7 bc
       -0.01702898 -0.026759503 -0.02360341 -0.026301323
000200 d5 73 e3 bc a7 02 bf bc 00 83 e1 bc 36 fa b7 bc
       -0.027765194 -0.023316694 -0.027528286 -0.022458177
000210 49 11 ce bc 93 e3 c5 bc dc 32 c2 bc 5f 12 b8 bc
       -0.025154727 -0.024156367 -0.023705892 -0.022469698
000220 d2 2c df bc 1e 13 aa bc 67 5f d8 bc 2a e6 c2 bc
       -0.027243052 -0.020761069 -0.026412679 -0.023791391
000230 c0 41 c6 bc be 26 8c bc 1b 53 ce bc 98 58 d4 bc
       -0.024201274 -0.017108317 -0.025186112 -0.025921151
000240 df 10 d0 bc df 60 cd bc b0 f7 bb bc 6a 2d b7 bc
       -0.02539867 -0.025070606 -0.022945255 -0.022360522
000250 45 14 e6 bc 4b 46 e1 bc d9 66 b3 bc 57 4e c4 bc
       -0.028085837 -0.027499339 -0.021899628 -0.023963137
000260 4e 82 ac bc 31 5f c6 bc 46 a0 c3 bc 1f cb c5 bc
       -0.021058228 -0.024215313 -0.023880135 -0.024144707
000270 59 3f c9 bc d0 f3 b2 bc 53 63 f0 bc 90 ea cd bc
       -0.02456634 -0.021844774 -0.029344236 -0.025136262
000280 c6 e4 c8 bc 2f 0a c5 bc 0b 03 da bc f5 78 d7 bc
       -0.02452315 -0.024052707 -0.02661278 -0.026302794
000290 52 d7 d9 bc c6 32 a1 bc 36 39 d0 bc f2 50 ca bc
       -0.02659193 -0.019677531 -0.025417905 -0.0246968
0002a0 21 cb af bc 99 8e 8c bc 88 92 c3 bc 9b 36 cc bc
       -0.021459164 -0.01715784 -0.023873582 -0.024928382
0002b0 be da ad bc bf 24 a3 bc a1 96 c5 bc 43 88 c0 bc
       -0.021222468 -0.019914983 -0.024119677 -0.023502475
0002c0 1b 20 d6 bc f9 e9 ce bc f8 d5 cd bc 21 b4 e5 bc
       -0.026138356 -0.025258051 -0.025126442 -0.028039994
0002d0 dd a9 cc bc a1 4a df bc 8d 89 d9 bc b8 0c e2 bc
       -0.02498334 -0.027257266 -0.026554847 -0.027593955
0002e0 b5 20 ce bc 93 47 d7 bc f1 76 bc bc ad c4 b4 bc
       -0.02516208 -0.026279246 -0.023005934 -0.022066439
0002f0 af 7b e6 bc f6 1e d3 bc 0e e9 d7 bc 39 d7 de bc
       -0.028135149 -0.0257716 -0.026356246 -0.027202236
000300 f3 84 c6 bc 28 16 b2 bc 70 b2 ce bc 30 11 c5 bc
       -0.024233317 -0.02173908 -0.02523157 -0.024056047
000310 b3 0f cf bc e1 1f cb bc 92 47 dc bc 66 05 de bc
       -0.02527604 -0.024795474 -0.026889596 -0.027102184
000320 bf 98 c9 bc d7 e7 ca bc 99 ee cc bc 22 9e b6 bc
       -0.024608968 -0.024768753 -0.025016116 -0.0222922
000330 17 3a de bc 77 26 ee bc c6 0e cb bc f6 1e ca bc
       -0.027127309 -0.029071076 -0.024787318 -0.024672966
000340 94 01 da bc b7 a0 bb bc bd df d5 bc 8a 26 cf bc
       -0.02661208 -0.022903783 -0.026107663 -0.025286932
000350 71 b1 b1 bc 15 7b c0 bc 8a 74 b4 bc 95 58 e1 bc
       -0.021691056 -0.02349619 -0.022028226 -0.02750806
000360 5d 09 d7 bc d1 d1 c3 bc 61 d1 d4 bc e4 e0 ae bc
       -0.026249582 -0.02390376 -0.025978746 -0.02134747
000370 1e ac ef bc be e2 bf bc 0c 4d cd bc 81 07 db bc
       -0.029256877 -0.023423549 -0.025061153 -0.026736977
000380 75 b5 d8 bc a2 cc db bc ee 85 ce bc 9a 98 dd bc
       -0.026453713 -0.026830975 -0.025210347 -0.027050305
000390 c6 4d e1 bc ed 47 c2 bc 4e 08 c7 bc 60 ac d9 bc
       -0.027502906 -0.023715938 -0.024295952 -0.026571453
0003a0 f8 20 d7 bc 8a 93 da bc 9e 74 c0 bc 16 24 c5 bc
       -0.026260838 -0.02668168 -0.023493107 -0.024065059
0003b0 39 2a d0 bc d4 d0 d3 bc 16 68 bf bc 80 d5 ba bc
       -0.025410758 -0.025856413 -0.023365062 -0.022806883
0003c0 7e 98 af bc f8 e1 cd bc 2a f2 d5 bc 50 0b c4 bc
       -0.021435019 -0.025132164 -0.02611645 -0.023931175
0003d0 af 18 c8 bc da cf c2 bc be 30 c8 bc 4e af c2 bc
       -0.024425833 -0.023780752 -0.024437305 -0.023765232
0003e0 d4 1a bb bc 67 7b c5 bc ef eb 96 bc 17 3b cd bc
       -0.022839941 -0.024106694 -0.018423049 -0.02505259
0003f0 51 e0 d8 bc 0e 60 d5 bc 43 fd c3 bc de e0 c3 bc
       -0.02647415 -0.026046779 -0.023924476 -0.023910936

sequential_13/dense_40/BiasAdd/ReadVariableOp f4 [64]
000000 7f f4 57 bc 56 0f af bb 89 23 e4 3d f2 bb 20 bd
       -0.013180851 -0.0053424044 0.1113959 -0.03924174
000010 2d 7c b7 3d 59 25 ad bb eb 9c 14 be 4b 49 dc 3c
       0.089592315 -0.005283993 -0.14512984 0.026890418
000020 00 00 00 00 91 88 d8 3d 00 00 00 00 38 32 8c 3d
       0.0 0.10572923 0.0 0.06845516
000030 74 96 fc bd 2e f2 70 bc dd b7 62 bd 8f 1d 88 3c
       -0.12333384 -0.014706178 -0.055351127 0.016615657
000040 68 c7 cd 3c ec 41 3e be c4 b6 26 bc 00 00 00 00
       0.025119498 -0.18579835 -0.010175411 0.0
000050 60 8e 8b 3e ae 46 81 bb 3d 86 48 3d b2 2f d3 bc
       0.2725706 -0.0039451933 0.048956145 -0.025779579
000060 a8 40 67 3d 22 ae 3a bc 36 e4 5a bc 5a 23 37 bd
       0.056458145 -0.011394056 -0.013360074 -0.04471145
000070 35 ed b8 bc 8c 62 1a 3e cb 5b ef 3d 48 d7 30 bb
       -0.022574047 0.15076655 0.1168743 -0.0026983786
000080 6c 30 1c 3c a1 d9 08 3e 7c f6 ab 3c 9e c1 b5 3d
       0.009533029 0.13364269 0.020991556 0.0887482
000090 da e8 21 3e 8f d4 90 bc 00 00 00 00 8d 99 88 3d
       0.15811482 -0.01767948 0.0 0.066699125
0000a0 da a6 3e 3d 69 70 13 bc 55 95 b0 bc 00 00 00 00
       0.04654584 -0.008998969 -0.021555582 0.0
0000b0 95 45 33 bd 42 f7 e4 bd 61 9a ee bc 7e 1f 1f bc
       -0.04376753 -0.11179973 -0.029126348 -0.009712098
0000c0 e7 5d 50 bd de 10 c7 3d 83 be d4 3d 09 d0 1d bb
       -0.050870802 0.09720014 0.103879 -0.0024080297
0000d0 4a e2 bd 3b 00 00 00 00 c6 4f 03 3e 44 34 0b 3d
       0.005794798 0.0 0.128234 0.03398539
0000e0 fb d6 67 bc ee 85 18 3e 67 ca 99 3d b8 ed 86 3d
       -0.014150376 0.1489484 0.07509308 0.0658831
0000f0 98 da 69 3d 00 00 00 00 6b 5d 3d be 18 ed 3d 3c
       0.057093233 0.0 -0.18492667 0.011592172

sequential_13/dense_39/BiasAdd/ReadVariableOp f4 [128]
000000 e0 a5 cf bd a2 0d 80 bd d0 1c cd 3c b3 95 39 3c
       -0.1013906 -0.062526 0.025038153 0.011327195
000010 ea d5 14 3e df 74 b6 bd 00 00 00 00 9f d5 70 bc
       0.14534727 -0.0890901 0.0 -0.014699369
000020 3a e9 51 3c 8d c0 6c bc 2d 4b 08 3d 78 9b a3 b9
       0.012811953 -0.014450205 0.03327482 -0.00031205616
000030 14 86 3a 3c b1 ea 8d 3e 89 68 1b bd 96 57 4b 3d
       0.011384506 0.27718118 -0.03794149 0.049644075
000040 e0 03 c3 3d 9f e7 0e be 9e b2 03 3e b9 43 3d bd
       0.095222235 -0.13955544 0.12861106 -0.046207163
000050 ee af b8 3d 2e 69 b9 bd f1 10 b0 3b 6c cd bf 3d
       0.09017931 -0.090532646 0.0053731133 0.09365353
000060 a6 7d ea 3b cc 9a 19 3e 00 00 00 00 3f f4 fc 3d
       0.0071560917 0.15000457 0.0 0.12351274
000070 fe e7 14 3e 78 cb ad 3b 00 00 00 00 d5 69 34 be
       0.14541623 0.0053037964 0.0 -0.17618497
000080 ba 00 17 be 02 11 94 3a dc a3 fa bd f4 da 70 3e
       -0.14746371 0.0011296573 -0.12238285 0.23521024
000090 1d b0 14 be 00 00 00 00 3a e0 92 bc 1f b5 60 3d
       -0.14520307 0.0 -0.017929185 0.05486023
0000a0 46 09 44 bd 45 b8 9a 3e 47 de e7 ba 13 e6 4e be
       -0.047860406 0.30218711 -0.0017690145 -0.20204954
0000b0 3a 68 5e 3e 12 ed 34 bc 80 5c ea bc d3 cb a0 3c
       0.21719447 -0.01104285 -0.02860856 0.019628441
0000c0 f9 6d 04 bd 16 ac 41 3d 1a 70 9e bc 6b 7e 3f bc
       -0.03233144 0.047283255 -0.019340564 -0.011687855
0000d0 bf 88 bf bd 97 c9 01 bd 75 e8 b5 bc 59 b7 dd bc
       -0.09352254 -0.03168639 -0.02220557 -0.027064966
0000e0 11 1c 07 3e 28 e5 6b bd f3 99 12 3b d4 d5 3f 3d
       0.131943 -0.057591587 0.0022369593 0.04683478
0000f0 95 11 2e be 96 01 04 3e 1e 0f 4c be fa 54 cb 3d
       -0.16998895 0.1289123 -0.19927642 0.09928317
000100 05 08 1b 3e c0 c9 b6 3a f6 f5 80 bc a8 f0 9b 3d
       0.15139778 0.0013945624 -0.015742283 0.07614261
000110 00 00 00 00 d6 9e 26 3e 0c d7 3f 3e 12 9a a8 3b
       0.0 0.16271529 0.18734378 0.0051453197
000120 79 92 ec 3c 4d 78 dc 3c 8a dd 43 bd d3 c4 3e be
       0.028878437 0.026912833 -0.047818698 -0.1862977
000130 10 54 a4 3d 2a 71 b7 bb c0 fb 28 3d f0 b2 36 be
       0.08023846 -0.005598207 0.041255713 -0.17841697
000140 64 3f ae 3d 0f ad c2 3c 9c 54 26 bd bf a0 d3 3d
       0.085081846 0.023764161 -0.040608034 0.10333394
000150 d6 26 3c bd 67 e2 ca bd 0e 14 2c 3e 5b c3 51 bd
       -0.045935474 -0.09906464 0.16804525 -0.051211696
000160 49 f6 cc 3d d5 f1 f3 3b d7 d9 6d bd 36 9b a4 bd
       0.10007913 0.0074446 -0.058069076 -0.08037417
000170 aa 85 b0 bb 53 06 5f bd d8 0b aa bd c0 92 03 bd
       -0.0053870277 -0.05444939 -0.0830304 -0.032122374
000180 fc c6 91 3e 5f 27 30 3e cc d0 e8 3c 7c e8 38 bb
       0.28472126 0.17202519 0.028419875 -0.0028214743
000190 cf 3b b7 3d 5b da 86 bc 8c 67 b5 3d d8 d9 69 be
       0.089469545 -0.016461542 0.088576406 -0.22837007
0001a0 0c f3 3b 3e 1a 28 b3 bd 34 ea 30 3e 5c 23 39 3d
       0.18354434 -0.08747883 0.17276841 0.045199737
0001b0 00 00 00 00 36 79 0e bb 80 7e 80 39 b3 29 b9 3c
       0.0 -0.0021739728 0.00024508312 0.022602892
0001c0 75 cc ac bb 26 b3 95 bb 95 4f 00 3e ef f5 a4 bc
       -0.0052733966 -0.0045684753 0.12530358 -0.020136802
0001d0 00 00 00 00 06 f2 5e 3d df c7 aa bb 00 00 00 00
       0.0 0.05443003 -0.005211815 0.0
0001e0 d6 89 00 3e b5 01 8c 3d 00 00 00 00 e0 02 a4 3b
       0.1255258 0.06836263 0.0 0.0050052255
0001f0 23 91 74 bd 00 00 00 00 75 64 fc 3d 39 22 e9 bd
       -0.059708726 0.0 0.12323848 -0.113834806

sequential_13/dense_39/MatMul f4 [128, 7]
000000 7b b5 e5 3d c7 f4 26 3e 70 29 2c be ab 4b 20 3c
       0.11216255 0.16304313 -0.16812682 0.009783666
000010 6a f2 1a 3e 40 ac 02 be 68 2f 04 3d 7c 8b 1d 3e
       0.15131536 -0.1276102 0.032271773 0.1538524
000020 48 9d 4c 3e 06 3d 01 3e 6f 5a 41 be de 58 47 be
       0.19981873 0.12620935 -0.18882154 -0.19467494
000030 90 ae 04 3d 19 21 1a 3e 04 90 44 3e 40 a0 c3 bd
       0.03239304 0.15051688 0.19195563 -0.0955205
000040 ea fb 17 be b8 1b 74 bd 3a fb 40 be 94 7d 07 be
       -0.14842191 -0.059596747 -0.18845835 -0.13231498
000050 0e b6 3d 3e c2 ac 81 be ce 87 55 be b4 8a 47 bd
       0.1852648 -0.25327116 -0.20852587 -0.048716262
000060 56 41 68 3d 92 d1 36 bd fd 38 16 bd 18 a6 e3 3d
       0.056702934 -0.044633456 -0.036675442 0.11115664
000070 67 34 62 bc 68 37 97 bc 0b 05 82 be 0a dd 56 3e
       -0.013806439 -0.018459037 -0.25394472 0.20982757
000080 64 41 57 3d 82 c3 8c 3c 03 e8 f5 3d 96 52 ca 3d
       0.052552596 0.01718307 0.12007143 0.09879033
000090 11 9c 6d 3d d2 af 57 be 22 97 1c 3e 87 26 2e 3e
       0.058010165 -0.21063164 0.15292028 0.17006885
0000a0 dc 29 11 bd 53 40 22 3e a7 04 10 be 6e 4c 06 be
       -0.03544031 0.1584485 -0.14064275 -0.13115093
0000b0 f0 50 38 be f5 02 c3 bd 9d 71 3f be cd a0 ee bd
       -0.17999625 -0.095220484 -0.18695684 -0.11651764
0000c0 14 b6 38 3d d8 3d 8d bd b5 ca 12 3e db e4 1f be
       0.04509552 -0.068965614 0.14335139 -0.15614645
0000d0 0e 03 05 3d bf ca 03 be d0 84 71 be 82 f4 26 3e
       0.032473616 -0.1287031 -0.2358582 0.1630421
0000e0 3d 29 43 bd a1 4e 87 3d 3a 8e 35 3e 62 b3 67 be
       -0.04764675 0.06606794 0.17730036 -0.22627023
0000f0 ec 32 f9 3d 2a 2c 39 3e 14 0a 08 be fd 34 79 bd
       0.12167916 0.18083254 -0.13285094 -0.06084155
000100 81 21 0a be ea 13 3e be 9d 0d 36 be 0f 50 11 3d
       -0.13489343 -0.18562284 -0.1777863 0.03547674
000110 bf f5 14 bd 7b 90 e3 3d 04 f4 43 3d 1c 63 cd 3d
       -0.036367174 0.11111542 0.047840133 0.10028669
000120 f7 ac 0b be e1 2f 11 3e a7 75 0b 3d 95 af c9 bd
       -0.136402 0.1417842 0.03404775 -0.09847943
000130 08 48 e2 3c 81 42 68 be 94 6b f8 bd 3a de 78 3d
       0.027622238 -0.22681619 -0.12129894 0.060758807
000140 72 e0 7c bd 22 38 47 be 4d 15 0f be 44 2f 7f 3e
       -0.061737485 -0.19455007 -0.1397297 0.24920374
000150 fd 42 db bd 4c 43 a2 bc bb 85 08 3e fb af 0f be
       -0.107061364 -0.01980748 0.13332264 -0.14031975
000160 ea ec 14 3d f9 af c1 3d b8 fd 58 be d3 77 63 3d
       0.03635875 0.09457392 -0.21190536 0.055534195
000170 f3 37 21 3b fe 30 10 3e 63 6a a1 3e 53 77 5e be
       0.0024599999 0.14081189 0.3152648 -0.21725206
000180 f6 80 b5 3e 65 65 d6 bb 5a 01 a8 3d 7f a5 3b be
       0.35449952 -0.006542849 0.08203383 -0.1832485
000190 a4 10 69 be 9a f8 24 be a1 9e 37 bd ef d6 92 bd
       -0.22760254 -0.16110459 -0.044829015 -0.071699016
0001a0 a1 d2 fb 3d 16 5f 71 bd 97 0b ee 3b eb 5d e8 bc
       0.12296034 -0.05892857 0.007264565 -0.028365096
0001b0 a6 d0 01 3e 28 a0 21 3e 21 5e 34 3e 1c 00 00 be
       0.1267725 0.15783751 0.17614032 -0.12500042
0001c0 35 b5 1e be e3 95 29 3e 60 79 58 3e f7 92 be 3d
       -0.15498812 0.16561083 0.21140051 0.09305375
0001d0 a8 b2 26 3e bc 33 03 3e 99 98 b2 bd 82 20 ce 3d
       0.1627909 0.12812704 -0.08720512 0.10064794
0001e0 7a 3f 92 3d 1f cb 8a be 98 47 56 be 30 2d 2a bd
       0.071410134 -0.27108094 -0.20925748 -0.041547
0001f0 43 7b 66 be 2c 9c 3f 3e fe d3 b0 bd a6 7e 07 3e
       -0.22507958 0.18711919 -0.08634184 0.13231906
000200 02 5d 20 3e 52 92 3c be 5e d1 8b be 18 54 96 3e
       0.1566048 -0.18415192 -0.27308172 0.29361033
000210 b9 64 bb 3c 6b f4 11 bc 7b 25 83 be b9 05 64 be
       0.022875177 -0.008908371 -0.25614533 -0.22267808
000220 40 f4 93 3c a3 e6 d3 3c f4 75 1e bd c5 93 03 3e
       0.018060803 0.025866812 -0.038686708 0.12849338
000230 ae 66 34 be bc ab 79 bd 8b 6d 5e 3e ac 7f e6 bd
       -0.17617294 -0.060954794 0.21721475 -0.1125482
000240 14 70 22 3e c0 11 40 bd 5b 00 89 bd 3c c2 2f 3e
       0.15863067 -0.046891928 -0.06689521 0.17163938
000250 c7 d2 34 be 44 37 a0 3d 9b 58 be 3d 0a 27 35 bc
       -0.1765853 0.07823041 0.09294244 -0.011056671
000260 62 ab fc bd f5 56 2c be 89 05 e2 3d 21 8c 9b bd
       -0.12337376 -0.16830046 0.11036212 -0.07595087
000270 b3 49 43 3e 95 fe fa bd f6 2c ef bd 9a 67 8a be
       0.19071083 -0.12255589 -0.116784975 -0.27032167
000280 e7 32 47 3e c5 22 56 3e 76 e7 3a be c8 0c 1f 3e
       0.19453011 0.20911701 -0.18252358 0.1553222
000290 35 6c 25 3e 7c 07 05 be a1 d0 d3 3d 1c b5 96 3d
       0.16154559 -0.12991136 0.10342527 0.073587626
0002a0 f5 d6 32 ba 03 41 16 be a8 72 54 3d 57 58 77 3c
       -0.0006822192 -0.14673238 0.051867157 0.015096745
0002b0 74 54 fb 3d f2 4a 38 be fa 3d 49 be f5 31 74 be
       0.122719675 -0.1799734 -0.19652548 -0.23847182
0002c0 7c 03 62 3e 0c 2c af bd e7 2e 03 3e 6b 74 24 be
       0.22071642 -0.08553323 0.1281086 -0.16060035
0002d0 d2 e3 a2 3c 99 85 fe 3d 56 90 0f be 3d c3 22 be
       0.019884024 0.124278255 -0.14019904 -0.1589479
0002e0 45 1f 0e be 8a b7 f8 bd ca 77 8e 3d a5 ef d7 bd
       -0.13879116 -0.12144382 0.06956442 -0.105437554
0002f0 c0 e9 69 bb ed 0d c1 bd ac 7c 8f 3d b0 d3 02 be
       -0.0035692304 -0.09426484 0.07006201 -0.12776065
000300 50 31 6a bd 01 61 10 3d 32 e8 eb 3d 51 5d de 3d
       -0.057175934 0.03524876 0.11518897 0.108576424
000310 28 0b ba bd 4b f5 87 3d 4f 81 53 3d 9c 3d 9e 3d
       -0.09084159 0.06638583 0.05163699 0.07726595
000320 12 9e a1 be 57 0e c7 3d 6d 7c 14 3d 26 b2 19 bd
       -0.3156591 0.09719532 0.036251474 -0.03752341
000330 1b ea 28 be 5f f4 d9 3d 9a 7c 10 be e7 68 6a 3e
       -0.16495554 0.10642313 -0.14110032 0.2289158
000340 bb 66 25 be 25 ea 84 be f0 d6 00 be ee 51 50 be
       -0.1615247 -0.25959888 -0.12581992 -0.20343754
000350 2e 8c e5 3d e4 ba 2b 3d b5 28 e5 bd 54 f8 66 3d
       0.11208378 0.04192628 -0.11189405 0.056389168
000360 e3 b2 e0 bd ee e7 97 3b 5c 0b f0 3c ae a0 96 be
       -0.1097162 0.0046358025 0.029302292 -0.29419464
000370 4a 0d 6b be 51 1d 16 3e c5 37 f4 bd 52 9f e3 3d
       -0.22954288 0.14659621 -0.119247 0.11114372
000380 5e 72 b0 3c 92 cd de bd dd 31 ca 3d a4 eb f3 bd
       0.02153891 -0.10879053 0.09872792 -0.11910179
000390 27 22 63 3e c5 9c 34 be 2b 82 c8 bc 00 f0 02 be
       0.22180997 -0.17637928 -0.024476131 -0.12786865
0003a0 29 0f 1e 3e 7e e3 22 3e b8 03 53 bb b1 3f 23 be
       0.1543547 0.15907094 -0.0032198261 -0.15942265
0003b0 bb 46 ec 3c bd ec 3b be a1 79 2e be db 42 03 be
       0.02884232 -0.18352027 -0.17038585 -0.12818472
0003c0 be 16 c6 3d 98 b0 8c be f4 ae 31 3e 19 14 cc bd
       0.096723065 -0.2747848 0.17351896 -0.09964771
0003d0 95 c9 d0 3d b8 d1 10 be 2e 7b e2 bd a2 34 59 3d
       0.10194699 -0.14142501 -0.11058651 0.05302871
0003e0 00 39 a7 3e 84 25 f7 bd 15 37 28 3e c3 cd 23 3d
       0.32660675 -0.120677024 0.16427262 0.03999115
0003f0 81 d5 e3 3d 06 62 87 bd 75 48 45 be d3 8d 59 be
       0.11124707 -0.06610493 -0.19265921 -0.21245508

sequential_13/dense_40/MatMul f4 [64, 128]
000000 10 4b 49 3d d8 9b 72 3d 1a 0f 3b 3d 69 b6 b3 3d
       0.04914385 0.059230655 0.0456687 0.08775026
000010 22 47 04 3e cc 19 33 bc 60 f5 c1 3b ef 12 53 bc
       0.1291776 -0.010931443 0.0059191436 -0.012882932
000020 02 81 99 bd 62 41 8e bd 99 32 52 bd 51 8a 19 bd
       -0.074953094 -0.069460645 -0.051317785 -0.037485424
000030 c5 0f ef bd f1 0f 73 3d 7f 5a 07 bd fc a3 02 3d
       -0.1167293 0.059341375 -0.03304529 0.03189467
000040 91 67 e2 bd 78 88 33 be ba 76 b8 3b 96 fa 8b bc
       -0.1105491 -0.17532527 0.0056293877 -0.017087262
000050 0d ca 89 3d f2 57 ac bd af aa 0b 3d 78 0d 3e be
       0.06727991 -0.08415212 0.034098323 -0.18559825
000060 89 14 c5 3d 5d f6 b1 3d 95 0d 1d 3e a5 28 df bd
       0.096230574 0.08689568 0.15337212 -0.10896424
000070 1d ca 89 bd c1 11 44 3c 8f 8f 12 3e f8 17 0c 3e
       -0.06728003 0.0119671235 0.14312576 0.13681018
000080 e9 07 97 3d 51 69 34 be 6a b6 00 3d cb d6 20 3e
       0.073745556 -0.176183 0.031423964 0.15706937
000090 c5 0b 00 3e 54 0a c0 bd 78 b5 b9 3d dd ce 88 bd
       0.1250449 -0.0937697 0.090678155 -0.06680081
0000a0 5c ab 71 bc 00 72 c0 bc 3e 20 46 3d 5f 6c 1b be
       -0.014750328 -0.02349186 0.048370592 -0.15178059
0000b0 89 aa 03 be 0c 85 a1 3d bc 91 23 3e 3f 2f 38 be
       -0.12858023 0.07886705 0.15973562 -0.17986773
0000c0 26 0f 8e 3d 1b b7 80 bd f6 bc 82 bc 2f 08 b4 bd
       0.06936483 -0.062849246 -0.015959244 -0.087906234
0000d0 20 7f 36 3e c4 ef 87 bd 6d de 5e 3c a6 ca 9a 3a
       0.17821932 -0.066375285 0.013602835 0.0011809662
0000e0 d8 06 b6 3d 49 bd 33 3d b3 38 02 be 65 91 7b 3d
       0.08888024 0.04388169 -0.12716942 0.061417956
0000f0 f8 5a e6 3d 69 b2 9f 3d f5 ed 40 be bd 01 45 3d
       0.1124782 0.07797701 -0.18840773 0.04809736
000100 ce 83 05 be 66 44 16 be c3 96 e0 3c ac 28 02 3e
       -0.13038561 -0.1467453 0.027415639 0.12710828
000110 d8 5e 8f 3d f7 31 04 be 0f 73 bf bd bd aa b4 bd
       0.07000512 -0.12909685 -0.093481176 -0.08821628
000120 5c 80 0a be 84 f2 8b bd 9c c5 e9 3c 32 f9 6e 3d
       -0.13525528 -0.068333656 0.02853661 0.05834312
000130 4e d9 05 3d d8 43 4c 3d 51 71 20 be 7e f3 02 3e
       0.03267794 0.04986939 -0.15668227 0.12788197
000140 84 60 47 3d 16 64 14 3e e3 6b a6 bd e6 53 23 3e
       0.04867603 0.14491305 -0.081260465 0.15949973
000150 4f c1 3a bd dd e6 67 bc 97 48 c3 3c f0 d6 e7 3d
       -0.04559451 -0.014154163 0.023838324 0.11320293
000160 61 d5 29 be f3 bb 29 3e bc 8f d5 bc 9a 23 d5 3d
       -0.16585304 0.16575603 -0.026069514 0.10407181
000170 9e 6a 04 3d 27 f4 6e 3d 90 1b 50 bd 70 72 9c bd
       0.03232824 0.05833831 -0.050807536 -0.07639015
000180 b1 d2 8c 3d 73 68 d6 bd 32 9f 34 bd 42 07 cc bd
       0.06876124 -0.10469141 -0.044097133 -0.09962322
000190 2a b1 5b bb ec 2c 1c be cc 96 aa bd 45 f9 55 3d
       -0.0033522346 -0.15251511 -0.083295435 0.052239675
0001a0 e2 7f 32 3e dd a2 19 bc f8 80 14 bd 6b ba 88 bc
       0.17431596 -0.009377209 -0.036255807 -0.016690454
0001b0 80 17 b0 ba 6e d9 aa bd 8c d9 c3 3d 4d 11 4f bd
       -0.0013434738 -0.08342253 0.09562978 -0.05055361
0001c0 c2 3d fd bd bc 7b 11 3e a1 03 3f be 14 43 b8 3d
       -0.12365295 0.14207357 -0.18653728 0.08997169
0001d0 9b 26 33 3e 4c e7 83 3d 9e a8 60 bd ac 35 6b 3d
       0.17495196 0.06440601 -0.054848306 0.057424232
0001e0 16 65 0d 3c 8f 5b b2 3d b8 b2 db bd c4 1d d0 bc
       0.008630058 0.0870887 -0.10727447 -0.025404818
0001f0 bd bd 0a 3e a6 6f cb 3d ac b5 ad 3d 02 b9 09 3e
       0.13548942 0.099334046 0.08481917 0.13449481
000200 34 db 89 3b 0a 79 fd 3b 20 3d 08 be 60 17 83 bd
       0.0042070393 0.0077353762 -0.13304567 -0.06400943
000210 be d4 c3 bd 75 9c 11 be be 48 db 3d 34 c4 c9 bd
       -0.09562062 -0.1421984 0.10707234 -0.09851876
000220 34 33 81 bd 50 96 83 3c 5e 9c e9 3c 82 ae ac 3d
       -0.06308594 0.016062886 0.028516944 0.08431722
000230 20 7f 1f bd 59 ad 11 3e 45 f5 dc bd dd 79 1c be
       -0.038939595 0.14226283 -0.10788969 -0.15280862
000240 7d 0c fe 3d 00 e2 9b 3c c4 9f 98 bc 01 83 08 3e
       0.12404726 0.019028664 -0.01863087 0.13331224
000250 d9 98 24 bb 52 27 97 3d 29 19 a9 bc 75 41 83 bc
       -0.0025115518 0.07380547 -0.02064188 -0.016022423
000260 07 31 2c 3e 73 b7 fb 3d a9 ab 1c 3e 8a fe 0a 3c
       0.16815577 0.122908495 0.15299858 0.008483538
000270 60 b0 9b bc 40 52 7e 3b 60 8e 9f 3c f6 24 30 be
       -0.019005 0.003880635 0.01947707 -0.172016
000280 91 46 0d be 89 da 56 bd a7 d2 11 be a0 8e 5c 3c
       -0.1379645 -0.052454505 -0.14240514 0.013461739
000290 10 88 89 bd 00 10 2d 3a ba df a6 3d f1 b3 b5 bd
       -0.06715405 0.00066018105 0.08148141 -0.08872212
0002a0 90 fa 01 be 6e 60 28 be 05 6b a0 3d 64 dc 99 bd
       -0.12693238 -0.16443035 0.07832912 -0.07512739
0002b0 2e 00 16 be 81 0f 8d bd 40 ed 3a 3c f4 e5 f3 bc
       -0.14648506 -0.06887723 0.011409104 -0.029772736
0002c0 b4 08 fd bd 4e d4 af bd 40 ab a5 3b a4 c2 d5 bd
       -0.123551756 -0.08585416 0.005055815 -0.104375154
0002d0 00 c4 f0 3b 35 f8 37 be 5c c2 5c bd 04 7f 23 3d
       0.007347584 -0.17965777 -0.053896293 0.039916053
0002e0 e2 55 d4 bd 9f 9a bb 3d 53 a2 31 be eb a1 76 bc
       -0.10367943 0.09160351 -0.17347078 -0.015053253
0002f0 52 f3 1b be 40 56 16 3c 90 fc ce bd 92 15 f4 bd
       -0.15229538 0.009175837 -0.10106766 -0.11918177
000300 dd fb 95 3d a0 2e b9 bd bd 98 c1 bd 51 82 51 bd
       0.0732343 -0.09042096 -0.09452961 -0.05114967
000310 dd 2a 25 3e b0 b5 89 3c 65 5d 20 be b8 44 a8 bd
       0.16129632 0.016810268 -0.15660627 -0.08216232
000320 9d 09 ba bd 59 e6 f2 3d 38 65 f7 bd 92 72 b1 39
       -0.09083865 0.118603416 -0.12079853 0.00033845432
000330 a6 ac 23 be 92 5e f9 3d b2 bc bb 3d 5c 51 cd 3d
       -0.15983829 0.12176241 0.0916685 0.10025284
000340 93 9a 70 3d 58 27 8c 3d 70 b4 c1 bc ec bf 54 3d
       0.058741163 0.06843442 -0.02364561 0.051940843
000350 31 15 9a 3d 06 3a 1a be a9 bc 2f 3d ad 7b 27 3d
       0.07523573 -0.15061197 0.04290453 0.04088943
000360 db 60 19 3e 4f c5 25 3e f0 99 6a 3d d9 af 0c 3e
       0.14978354 0.16188549 0.057275712 0.13738956
000370 c4 83 71 bd ff 6e 33 3e aa a4 13 be c7 10 81 bd
       -0.058963552 0.1752281 -0.14418283 -0.06302028
000380 ea 21 76 bc c6 3c fb bd c6 a0 29 be 14 dd f1 3d
       -0.015022734 -0.12267451 -0.16565236 0.118097454
000390 18 a0 8e bd 00 15 23 3c 38 6a 87 bd 9d 41 10 be
       -0.06964129 0.009953737 -0.066120565 -0.1408753
0003a0 87 17 12 3e ff 50 33 bd e6 fc 2f be 71 d2 5c 3d
       0.14266787 -0.043778416 -0.17186317 0.05391163
0003b0 f0 e5 ad 3c 44 2a 11 3d 35 a5 89 bb 53 18 91 bd
       0.021227807 0.0354407 -0.0042006024 -0.070847176
0003c0 7b 35 1c 3e dc 36 68 3d d7 d3 41 3c c0 74 26 bc
       0.15254776 0.056692943 0.011830292 -0.010159671
0003d0 c6 e3 a6 3d bd 9f db bd a8 a3 92 3d a0 00 79 3c
       0.08148913 -0.10723827 0.07160121 0.015197903
0003e0 01 f5 5c 3d 50 db f2 3c b2 6f 99 3d e4 ba 54 bd
       0.05394459 0.029645592 0.07492007 -0.051936045
0003f0 b2 cd 31 be 00 91 ad ba c6 32 a5 bd 16 af 05 3e
       -0.17363623 -0.0013242066 -0.08066325 0.13055071

sequential_13/dense_41/MatMul f4 [2200, 64]
000000 b0 7b 91 bc f3 ee 9f 3c e8 fa 19 3d 99 12 65 bd
       -0.017759174 0.01952312 0.0375928 -0.05592594
000010 06 6b fd 3c 1c 42 9d 3d 49 e6 ba bd 5e 1e 01 be
       0.030934822 0.07678625 -0.09125955 -0.1260924
000020 28 ae 87 3c b1 89 84 3d 7a f0 2a bd c5 17 c5 bc
       0.016562536 0.06471575 -0.041733243 -0.024059186
000030 d5 7d 9d bd bb 77 1f bd 84 fb 5f 3c 7e 54 aa 3c
       -0.07690016 -0.038932543 0.013670806 0.020792242
000040 d2 57 d0 be c9 bd ba bd 37 d4 42 bd 78 45 0e bd
       -0.40692002 -0.0911823 -0.047565665 -0.03473422
000050 7f 0c 35 bb 4a eb 78 3d 66 f4 09 bd 60 e5 1b 3c
       -0.0027625856 0.060771264 -0.033680342 0.0095151365
000060 ec e3 e5 bd 89 7e 0f 3c 89 5c 3d bd 21 7e 0f 3c
       -0.11225113 0.008758196 -0.046230827 0.008758099
000070 73 2c 0f bd ff a8 9c bc 67 d0 bd 3c e2 c7 9f bc
       -0.0349545 -0.019123552 0.023170663 -0.019504491
000080 ca bc c0 bc 64 a6 b9 bd 29 16 64 3d ee e9 79 bc
       -0.023527522 -0.090649396 0.055685196 -0.015253527
000090 6c 10 ae bd 9f 72 e1 bc 9e 90 27 3d 96 cd 28 bc
       -0.08499226 -0.027520476 0.040909402 -0.010302922
0000a0 9e 40 5e 3d 07 c5 0c bd 14 2e 47 3b 7e 0a 22 bd
       0.054260843 -0.034367587 0.0030392455 -0.039560787
0000b0 05 4e 5a 3d dd 72 78 3d f3 59 5f bc 44 70 4e be
       0.05329706 0.060656417 -0.013632285 -0.20160013
0000c0 09 a0 98 bc cc d0 8f be 9c 9d 16 be 14 5c 38 3d
       -0.018630998 -0.28088987 -0.1470856 0.045009688
0000d0 76 af e7 3d 1f 84 48 bd e4 d9 1f 3d 05 b9 fa 3c
       0.113127634 -0.048954125 0.039026156 0.030605802
0000e0 4e 28 44 3d 89 0f f9 bd 31 fe fd bd 36 5b fa 3b
       0.04789 -0.12161166 -0.12401999 0.0076402677
0000f0 7f b3 61 3c 40 3b 4b 3c 5f 5d 8d bd 79 42 d2 3c
       0.013775705 0.012404263 -0.06902575 0.025666462
000100 80 2a b6 3c 94 44 de 3c 54 53 8a 3d 3d 7d 99 bc
       0.022237062 0.02713231 0.06754175 -0.018736476
000110 4d 2e 94 bd 64 f5 44 3d 17 21 f3 bd ed 6b 2d 3d
       -0.07235394 0.048085585 -0.11871546 0.042339254
000120 20 b0 21 3c a3 62 0b be 1a ec b1 bc 86 74 0b be
       0.009868652 -0.13611846 -0.021719027 -0.13618669
000130 96 9b 88 3a 5a 97 0f 3d df c0 7a 3c 72 f9 88 ba
       0.0010422345 0.03505645 0.015304773 -0.0010450317
000140 0e 58 8c be 69 c0 c0 3c 64 8a d3 3c 12 44 10 bd
       -0.2741093 0.023529248 0.025822826 -0.035221167
000150 76 b6 24 bd 5d ad c7 3c dd 6f 36 3d 28 a1 5f 3d
       -0.04021307 0.024374658 0.044540275 0.05459705
000160 14 49 0b 3d 6c bc 02 3d 53 4f d3 bc 08 6b f7 3c
       0.03400524 0.031917974 -0.02579466 0.030202404
000170 ba 41 11 bd 48 1b c2 ba 6f ea eb bc 24 f1 42 3d
       -0.035463072 -0.0014809156 -0.02879831 0.04759325
000180 3a 0b 5b bd 36 87 b6 bd 00 1b 24 3d 7a e5 a8 bc
       -0.053477503 -0.08912508 0.04006481 -0.020617235
000190 1f fe bd bb 99 7f 94 bb 36 4f 05 3d 14 4e 54 bc
       -0.005798116 -0.0045318124 0.032546245 -0.012958068
0001a0 5d 42 85 3d c3 aa 44 3d 93 5c 2f bc 6f 6f 1d bd
       0.065067984 0.048014414 -0.010703224 -0.03843635
0001b0 aa 5e 47 3d aa 0e 76 bc 6b 6e 87 bc 57 d9 4e be
       0.048674263 -0.015018145 -0.016532144 -0.20200096
0001c0 84 fc 1b bd 91 1a 95 be dc bb 8f bd 06 da a0 3d
       -0.038082615 -0.2912183 -0.07018253 0.07854085
0001d0 d4 0d af bc 50 75 4a bb cf 80 b8 3d a4 eb bc bc
       -0.021368898 -0.0030892678 0.09008943 -0.023061581
0001e0 fc bb 5f 3c 39 fd 12 bd 9a 18 0f bf 8f 97 a5 3b
       0.013655659 -0.035886023 -0.55896914 0.0050534676
0001f0 e5 2e 7a 3d 53 c4 12 bd 1b 41 19 3c be 58 b1 3d
       0.06107988 -0.03583176 0.009353901 0.08659504
000200 d5 bb 31 3d 88 ce 6b bc c7 3e 84 3d 58 4c 41 be
       0.04339202 -0.014392503 0.06457286 -0.18876779
000210 ee e1 df be 71 1f 9e 3d 5a a7 53 3d 0a 57 1a 3d
       -0.43727058 0.07720841 0.05167327 0.037680663
000220 b0 38 77 3c 6c 45 39 be f0 23 22 3d 1a 04 8d bd
       0.015089199 -0.18092889 0.039585054 -0.06885548
000230 cf 2c cd 3d bc ad a3 bc 3e 7b 7a 3c c9 d7 a7 3d
       0.10018312 -0.019980304 0.015288172 0.081954546
000240 ef 92 07 be fb 80 4b bd 62 c6 19 3d 48 59 ea 3c
       -0.13239644 -0.049683552 0.03754271 0.028607026
000250 d3 55 59 3d 08 73 6a bb 9d d5 15 3d c5 4d 1e 3c
       0.053060364 -0.003577413 0.03658067 0.009662096
000260 64 b0 53 be 87 10 55 bd ea 7f 0e bd 23 75 4a 3d
       -0.20672756 -0.052017715 -0.034789957 0.049428117
000270 02 24 f2 bc 8b 68 14 3c 74 fd 3b bd 62 dd 9a bd
       -0.029558185 0.009058128 -0.04589601 -0.07561757
000280 b8 bf 80 3d c8 9a d2 bc 99 73 fc 3c ce 3c 9b 39
       0.062865674 -0.025708571 0.03081684 0.00029609207
000290 f6 64 d4 3d 22 55 e5 3c f0 b6 d4 3c 18 81 6c 3c
       0.10370819 0.027994696 0.025966138 0.014435075
0002a0 db 2d f9 bd e3 f1 73 3c 3a 44 a3 3c d8 18 8c 3c
       -0.12166949 0.014889213 0.019929994 0.01710169
0002b0 52 cb 71 3c bf 8b 9a 3d 71 e6 ba 3c 50 58 36 3d
       0.014757948 0.07546186 0.022814961 0.044517815
0002c0 7e 31 8f bc 3a b3 05 3d 8f ef 64 3d 0c 9e ac bd
       -0.017479654 0.032641627 0.055892523 -0.084285825
0002d0 cc ef b7 be dc 1c a3 3c d1 cf a1 bd 17 40 bb bd
       -0.35925138 0.019911222 -0.07900966 -0.091430835
0002e0 bb 59 81 39 fe 9a 92 be a4 93 01 bf 3c 75 55 3d
       0.00024671652 -0.28633875 -0.50615907 0.052113757
0002f0 dd 36 ac 3d f8 ba f5 3b 96 d2 b8 3d f6 be 45 3d
       0.08408902 0.007499095 0.09024541 0.048277818
000300 48 5d 2e bd 3b 18 b8 bc 00 1d a2 bb 9f 2c 4a bc
       -0.04256943 -0.022472491 -0.0049473047 -0.01233974
000310 8f 98 07 bd 6a 69 77 bc 11 24 27 be 32 e1 0a be
       -0.033104476 -0.015100816 -0.16322352 -0.13562468
000320 08 41 48 bd f9 e3 83 bd 00 83 82 3c 62 b8 f3 bd
       -0.048890144 -0.06439967 0.015931606 -0.119004026
000330 1a e6 80 bd 5d f0 19 bd ad d1 8e bd 40 87 23 3b
       -0.062938884 -0.037582744 -0.06973586 0.0024952441
000340 59 0e af be 54 dc 1f be 6e 54 7c bd 40 36 d5 3b
       -0.34190634 -0.15611392 -0.061603956 0.0065067112
000350 bd 2d e4 bd d3 8d 26 3d 02 cb 28 3c 94 5d e6 bb
       -0.111415364 0.040662598 0.010302307 -0.0070301984
000360 92 ea 7e 3d 4e f8 11 3d 4d e1 41 bd f7 e1 92 bc
       0.062235422 0.035637192 -0.047334004 -0.017930014
000370 31 34 97 bc cc e6 0a bd 6a b7 f6 3c 36 31 ea 3d
       -0.018457504 -0.03391151 0.030116756 0.114351675
000380 a9 39 16 bd fb 84 d9 bc 98 5a c5 bc e3 7c 30 3d
       -0.036676083 -0.026552668 -0.02409105 0.04308785
000390 37 e3 f7 3c 7d 06 be 3c 6c 89 bc 3c 3b af 70 bd
       0.030259712 0.023196453 0.023014747 -0.058760863
0003a0 0e e4 3c 3d 9f bd 0b 3b f6 96 66 3d c0 26 ca 3b
       0.046115927 0.002132274 0.05629631 0.00616917
0003b0 ee 54 f4 3b d2 19 77 3c 13 46 15 bd 45 7f ff bd
       0.0074564135 0.01508184 -0.03644378 -0.124754466
0003c0 3f b8 d7 3d 6c f8 d6 bd 96 67 01 bc 11 12 68 3d
       0.10533189 -0.104966015 -0.007898232 0.056657854
0003d0 46 e0 9e 3c a0 7c 03 3b 9c e0 6a 3d 10 7b ac 3a
       0.019394051 0.0020063296 0.05734311 0.0013159234
0003e0 6a b6 a1 3d a6 c3 43 3d fb 6c 88 bb ac 81 e0 3c
       0.07896121 0.047794007 -0.004163382 0.027405582
0003f0 71 31 1e 3d 34 4a f1 3c e1 31 81 bd 64 cf 85 3d
       0.03862137 0.029454328 -0.06308342 0.06533697
